model_weights.pth (torch, 145232 bytes, 8 tensors)

conv1.att_src f4 [1, 8, 8]
00000000: 1734 5dbe 5aef 093c 20b3 4939 03d0 eabd
00000010: b3b5 80be ca78 cd3c 0b3b 953d 97d7 f93a
00000020: cac5 8539 3825 a9bb af50 22bb fb72 25be
00000030: 8a40 1d3d b596 e33c f2f1 353e 632b e73c
00000040: b10c c2bc c77c 1c3d 055e d3bd 9cde 12be
00000050: d6d5 773c c681 a23b 8484 11bc cf1d 7fbe
00000060: c48a 2f3c 2b48 35be 39ae 6a3e 3315 b83b
00000070: 6e71 c83d d531 b0bd 5b40 843e 4db8 f13c
00000080: 7b22 9dbd bfc6 f63c f58c ebbb 20b5 92ba
00000090: 3752 363e 45cd 5cba 7523 38be 6a0a 723b
000000a0: 41d1 53bb bd87 803a 3be4 83bd 1afb d03b
000000b0: 4935 83be cab5 f63b 41b8 6dbe d1c3 89bb
000000c0: 58dd 0e3e 0268 5d3e 56e5 f13c 5a18 25bc
000000d0: 5a4a d13b 3cea febd 6813 e13d dcf2 cebb
000000e0: fabd c438 8b84 81be 4e6e 5b3d 16fd 8bbc
000000f0: 4558 923b 9ff1 d8ba 6ffd 513e 336c 6bbd
-0.21601902 0.008418882 0.00019235583 -0.11465456 -0.25138626 0.02508201 0.07286652 0.0019061443
0.000255151 -0.0051619075 -0.002476733 -0.16157143 0.038391627 0.027781824 0.17768076 0.02821893
-0.023687692 0.038204934 -0.10320667 -0.14342731 0.015126666 0.004959318 -0.008881692 -0.24913715
0.010714237 -0.17703311 0.22918023 0.0056177615 0.0978726 -0.08603255 0.2583035 0.029506827
-0.07672592 0.030124066 -0.0071884342 -0.0011192895 0.178048 -0.00084229215 -0.17982276 0.0036932477
-0.003232077 0.0009806078 -0.06440016 0.00637759 -0.2562659 0.007528995 -0.23214819 -0.0042042513
0.13951623 0.21621707 0.029528301 -0.010076607 0.006387037 -0.124470204 0.109900296 -0.006315572
9.381394e-05 -0.25296435 0.05357199 -0.017088454 0.004466089 -0.0016551501 0.20506833 -0.057476234

conv1.att_dst f4 [1, 8, 8]
00000000: 76b2 913e 8369 5a3d 7af5 6b3e fd33 863b
00000010: 8079 a1ba 60d4 013e 488d 293d 461b 253b
00000020: 6c78 49be a1aa e3bd 455b 8eba 7afc aabd
00000030: 3fba a4bb fc0f 7abc ea1e be3c 92ea 50ba
00000040: 6be5 cabd 80aa 883b 7a1a 933d c0e0 563e
00000050: ef78 17ba 207b 283e bacf e53d 9e35 7abc
00000060: ae8c 183c 928d 733d feec a7bb 9863 e2bc
00000070: 28de 593d d658 803d 125b d73b fe27 4c3c
00000080: e4fc f9b9 e864 bbbd 3524 163e 988c a83a
00000090: 61f0 143e 72e2 2ebc d620 723e fab2 fd3d
000000a0: 6082 8abe effe 6b3e cd85 843e 6481 b13d
000000b0: cfb8 4f3e 8b1c 81bb fdcc 503a 50af 9cbd
000000c0: a0a3 efba 4666 dfbc a2f3 d83d 2a1c 9c3d
000000d0: 55c4 abbc 0a4e 3eba c100 223b 8e36 913b
000000e0: 963e 51be 07c7 543e d854 09be eb39 32ba
000000f0: 7fa2 f4bb d44e c3b8 8773 d43a a796 2c3d
0.28456467 0.05332328 0.2304286 0.004095553 -0.0012319535 0.12678671 0.041394502 0.0025193258
-0.19674844 -0.11116529 -0.0010860941 -0.08348937 -0.005027085 -0.0152626 0.0232081 -0.0007969524
-0.09907039 0.004170716 0.071827844 0.20984173 -0.00057782134 0.16453218 0.11221261 -0.015271572
0.009310884 0.059461184 -0.005124687 -0.02763538 0.05319038 0.06266944 0.0065721357 0.012460707
-0.000476814 -0.09150106 0.1466225 0.0012859283 0.14544822 -0.010674106 0.23645338 0.12387653
-0.27052593 0.23046468 0.25883332 0.086672574 0.20285343 -0.00394017 0.0007965116 -0.07650626
-0.0018283017 -0.027270447 0.10593344 0.07622559 -0.020967642 -0.00072595535 0.0024719688 0.0044315523
-0.20434031 0.20779048 -0.13411272 -0.00067987916 -0.00746566 -9.3130075e-05 0.0016208746 0.04213586

conv1.bias f4 [64]
00000000: 59c8 113e ce90 113e e2d7 af3d 6e26 003e
00000010: 8241 1a3e d7c7 033e 6b87 f93d 9a7e 343e
00000020: c533 0d3e 8793 c43d 718d b33d 2f1a f03d
00000030: 0232 173e 401c b13d 5f51 143e aa82 db3d
00000040: e4dd 7f3d d5b5 ec3d 9d53 843d a682 033e
00000050: c7d6 cd3d 0b4e f33d 973c fc3d e1bf 993d
00000060: 2d09 d53d 75cd ae3d 0bef e83d b3cf bc3d
00000070: f68c 1b3e 4b3b 2b3e f6fb f73d 5989 8a3d
00000080: 5beb e03d 7183 0e3e 542e 113e 9186 c63d
00000090: e380 f83d e960 b73d e1b1 ca3d 1ab8 ee3d
000000a0: 0283 e33d 02dc 1f3e 7a22 043e 5299 ad3d
000000b0: 0167 1d3e 280a 1d3e 362a 003e 60b7 fa3d
000000c0: 3f87 e93d 9739 e43d 4318 f43d 3031 033e
000000d0: ac03 de3d bbb9 dd3d d37e 0d3e 18ed f03d
000000e0: ab84 133e f60a 173e 16a7 fb3d 44d6 883d
000000f0: b251 183e 69b1 0e3e c75d fa3d e073 843d
0.14236583 0.14215395 0.08586098 0.1251466 0.15064052 0.12869202 0.12184032 0.1762642
0.1378928 0.09598451 0.08767212 0.11723744 0.1476517 0.086479664 0.14484166 0.107182816
0.06246747 0.11558119 0.064612605 0.12842807 0.10050731 0.1188012 0.12316244 0.07507301
0.10402141 0.085352816 0.11373719 0.09219303 0.15190491 0.16721837 0.121086046 0.06764478
0.109823905 0.13917328 0.14177829 0.09693635 0.12133958 0.08954031 0.09897209 0.11656208
0.11108972 0.1561127 0.12903777 0.08476509 0.15371324 0.15335906 0.12516102 0.12242007
0.11402749 0.11143797 0.1191869 0.12811732 0.10840544 0.10826441 0.13817911 0.11763972
0.14406078 0.14750275 0.122877285 0.06681493 0.14874914 0.13934864 0.12224918 0.06467414

conv1.lin.weight f4 [64, 543]
00000000: 4a38 8a3b 12ef 5b3d 326e 14bd c616 eabc
00000010: 020f 9e3d 6a63 10bc a0a5 2cbd dff6 2ebd
00000020: d56c 853d 6a57 1c3d d753 a73d fef7 093e
00000030: 7699 8b3d 26a6 c03d f1ed be3d 8254 61bb
00000040: 9cb7 113d d2b7 e7bc f1e9 31bd 031d df3d
00000050: 5038 ae3c 1a5d 7fbb 6d22 ea3d 723c 60bc
00000060: 1057 0d3c 512c 05bd f334 03bd 7aec bbb9
00000070: 0b0c 8e3d 9b44 673b 50d0 143e bc21 653d
00000080: e95f d2bc 5f73 dd3d 9c66 98bd 09bb 4ebd
00000090: af58 47bc 463a 0ebd e355 973d 1130 f03d
000000a0: 5c0e 3fbd 7fbf 7539 ae6c 6e3e 2507 0ebb
000000b0: 62f3 a93d 6912 683d 7830 afbc d466 45bc
000000c0: d57a b5ba d45b 093d a00d a1ba 6cd1 f73c
000000d0: 1054 e3ba cc8d 33bd 8857 d5bc 902c 403d
000000e0: 5b0b cdbc edc0 e9bc 0dea 50bd e05c 2d3e
000000f0: 9067 a83d 89e0 36bd 700d 5abd 39be 46bd
00000100: 389f dfba c55e 983d dd0e 59bc bb42 0ebd
00000110: 4f0c 00bd 6b47 f43d 1262 d6bc d134 a7bc
00000120: c442 583d 0b02 6bbc 3e3e dabc 5182 a9b9
00000130: 0644 55bd 8c89 883d a8e3 1d3e be15 eabc
00000140: 1a28 abbc b927 d73d 2348 a3bc 1b03 cebc
00000150: c83e 1fbd ae5f 15bd 3b06 8539 603c 043e
00000160: 49f6 80bc c95b 8b3d 4733 413e 42ae 5b3d
00000170: f342 9a3c f1af a8bc d88b 5bbd 2004 a3bc
00000180: c483 913d cb74 143e 85e5 803c 205b cd3d
00000190: abb0 b2bb dd6e 2ebd 730c 0b3e cbc8 f33c
000001a0: d91d 18bd 8715 ca3d 4d47 abba bc88 78bd
000001b0: af08 5cbd 0211 993d dde6 e2bd a893 e3bc
000001c0: f7da d4bc 6659 54bd 2eae 44bd 35ca fbbc
000001d0: 39bf 1eba 1326 c8bc e748 32bc 1dbc 523d
000001e0: 68e0 2bbc 7e2b cbbc fc27 dd3d 5a13 113e
000001f0: 1fac 89bd 96aa c3bc 6bd0 9c3d 0370 a8bc
00000200: 2c62 e73d ed71 dc3d a634 87bc f388 8bbc
00000210: 3783 f33d 4a26 3ebd cac5 9c3e 4ae9 d9bc
00000220: 3a55 05b9 4177 14bd 9633 813d 7a8f 27bd
00000230: 13bf a6bd 6d07 803d 4430 aebb 75d8 fcbc
00000240: 7e6b 173d 9aee 83bd b601 31bd 1540 a2bc
00000250: ce3d 4fbd 5074 b3b7 7f76 14bd e65b d4bc
00000260: e542 a03d 4e65 b53d 59d3 b13d 4bb2 c83d
00000270: 025e 6f3d ccce 18bd 1b23 9b3a f278 053e
00000280: 3a38 c43d 0ba8 733d a6da b2b9 86e8 6b3d
00000290: 9b5f 9c3d f6f7 b03c 0437 30bd 893b 313d
000002a0: 7d10 8b3d 5694 fc3d b039 ed3d 469f 503a
000002b0: 4919 cb3d 7e9e 4bbd ddae 693d 159e 9b3c
000002c0: 1803 b53c b59f e03d a4ba 82bd 4cf3 0fbd
000002d0: f104 1fbd e193 103e e37c 5cbd a45c 2f3a
000002e0: 688b 48bd e0e9 ffbc 4ad5 663d ec4d ea37
000002f0: dc73 41bd eebe d4ba f0a3 313e 9ece 1e3d
00000300: 5bea 0b3e b90d e6bd 98fa 0cb9 625b 15bd
00000310: af1d c0bc d45f 41bd 027a 7b3d 94f1 23bd
00000320: d751 653d c1a1 803d cc57 813d 6cf7 12bd
00000330: 4bf4 ff3d dcf4 adbd 729c 693d 120f 423a
00000340: 9cb1 01be 6c02 53bc e892 e1bd d590 b9bd
00000350: afca 04bb ec2f 38bd fcf2 f33d ba05 2fbd
00000360: ee0d cc3d 7781 1d3d 447d 9e3d 052d ae3d
00000370: 4bb4 233e 7ee4 19bd 5435 9c3c fff9 c8bd
00000380: e1d7 4d3c 6e37 f6bd 9bdd f13c 46d9 dbb8
00000390: 4808 9c3d b051 913d 9f0c f13d 1d25 c8bc
000003a0: eb2f 693d 566a 23bd d15e 933d af03 48bb
000003b0: dcb1 0e3e 0de4 22bd f1d1 a1bc 37bc 893d
000003c0: 0005 653d 054f 58b9 296e deb7 7faa 4f3e
000003d0: 659c 98b9 bc6b a239 3775 05bd 23a3 acbc
000003e0: 9c87 96bc f99d 42b9 b997 e7bc 2607 4c3d
000003f0: a215 093d a886 f6bc c506 de3d 07cb 0a3e
0.004218136 0.053694792 -0.036237903 -0.028575312 0.07717706 -0.008812765 -0.04215014 -0.042715903
0.06514899 0.038169302 0.08170288 0.13473508 0.0681638 0.0940669 0.093227275 -0.0034382646
0.035575494 -0.028285895 -0.043435995 0.108942054 0.021267086 -0.0038965405 0.114323474 -0.013686286
0.008626714 -0.032512967 -0.03203292 -0.00035843608 0.06935891 0.0035288695 0.1453259 0.055940375
-0.0256805 0.10813021 -0.07441446 -0.05047134 -0.01216714 -0.034723543 0.073894285 0.11727918
-0.046644554 0.00023436359 0.23283646 -0.002167174 0.08298375 0.056658182 -0.021385416 -0.012048442
-0.0013845811 0.03353484 -0.0012287386 0.030251227 -0.0017343778 -0.0438364 -0.026042715 0.046917498
-0.025029829 -0.028534377 -0.05100446 0.1692996 0.08222878 -0.044647727 -0.05323547 -0.048521254
-0.0017061001 0.07439951 -0.013248173 -0.034731608 -0.03126174 0.119276844 -0.02616981 -0.020410927
0.052798048 -0.014343749 -0.026641008 -0.00032331285 -0.052066825 0.0666686 0.15418875 -0.02857482
-0.020893145 0.10505623 -0.019931858 -0.025147965 -0.038878232 -0.0364682 0.0002537238 0.12913656
-0.015742438 0.06804616 0.18867217 0.053632982 0.018830752 -0.020591708 -0.053600162 -0.019899428
0.071052104 0.14497678 0.015734443 0.10027146 -0.0054531894 -0.042586196 0.13578968 0.029758831
-0.03713784 0.09867387 -0.0013067514 -0.060677275 -0.05371922 0.07473947 -0.1107919 -0.027780369
-0.025983317 -0.05184307 -0.048017673 -0.030736068 -0.0006055716 -0.024432218 -0.010881639 0.05144893
-0.010490514 -0.024801012 0.10798642 0.14167538 -0.067222826 -0.023885053 0.0765694 -0.020561224
0.11298022 0.10763917 -0.016504597 -0.017033076 0.118902616 -0.046423234 0.3061965 -0.026600499
-0.00012715618 -0.036246542 0.06308667 -0.040908314 -0.08141913 0.06251416 -0.0053158123 -0.030864934
0.036967747 -0.06441994 -0.043214522 -0.019805947 -0.05059605 -2.1392625e-05 -0.03624582 -0.025922727
0.07825259 0.08857213 0.086828895 0.09799632 0.058439262 -0.037306592 0.0011836024 0.13034418
0.09581037 0.05948643 -0.0003411371 0.0575948 0.07635423 0.021602612 -0.043021217 0.043269668
0.06790254 0.1233298 0.11583269 0.0007958304 0.09916932 -0.049711697 0.05705153 0.018996278
0.022096202 0.10967962 -0.06383255 -0.035144135 -0.038823072 0.14118911 -0.05383004 0.0006689525
-0.048961073 -0.03123945 0.056355752 2.7931259e-05 -0.047229633 -0.0016231218 0.17347693 0.038771264
0.13663618 -0.11233086 -0.00013444794 -0.036464103 -0.023451654 -0.04721053 0.061395653 -0.04002531
0.05598625 0.06280852 0.06315574 -0.03588049 0.12497767 -0.08493969 0.057033964 0.00074027583
-0.12665409 -0.012878995 -0.11014348 -0.09060828 -0.002026241 -0.044967577 0.1191158 -0.04273007
0.099635944 0.038453545 0.07738736 0.085046805 0.15986745 -0.037571423 0.019068398 -0.09813308
0.012563677 -0.12022291 0.029524615 -0.00010483204 0.07618767 0.07095659 0.117699854 -0.02443176
0.056930464 -0.03989633 0.07195819 -0.0030519774 0.13935035 -0.039768267 -0.019753428 0.06725352
0.05591297 -0.00020628802 -2.651576e-05 0.20279883 -0.00029108222 0.00030979316 -0.032582488 -0.021073883
-0.01837521 -0.00018560131 -0.02827059 0.049811505 0.033467896 -0.030093506 0.10841135 0.13554011

conv2.att_src f4 [1, 1, 8]
00000000: d5e4 f1be 36dd 0c3f 8631 8a3e fb78 3c3d
00000010: 2b0b 3d3e df9f 4e3e 2f9d 043f 0675 a0bd
-0.47244897 0.5502504 0.26990908 0.046013813 0.18461291 0.20178173 0.51802343 -0.078348204

conv2.att_dst f4 [1, 1, 8]
00000000: c6f8 c13e c885 05bf 8836 c9be 6ae9 9cbe
00000010: 67fb cabe 261e 7f3e d38d 4b3f e8c0 c2be
0.37885112 -0.5215726 -0.39299417 -0.3064683 -0.3964493 0.24913844 0.7951328 -0.380378

conv2.bias f4 [8]
00000000: 0258 f1bd 4677 8e3d 129c 333d 4e46 91bd
00000010: e0d7 423c 7a67 da3d c18e a1bd 3301 19bd
-0.11784364 0.06956343 0.043850012 -0.07093488 0.011892289 0.10664268 -0.07888556 -0.03735466

conv2.lin.weight f4 [8, 64]
00000000: eaa3 ac3e 9b44 ae3d 96c7 c73e 6abd 053e
00000010: 12a8 8e3d 1107 78be 1be1 9e3e 0fb3 3bbe
00000020: 8b3e 16be b966 a13e 4e14 cf3e 1804 f7be
00000030: 9ffb 9cbe c45a 963e 15fb 53be 4d85 a0be
00000040: 701c d93e 3916 bbbe 6f1b 343e 0522 d8be
00000050: 60e2 92be 50ca 503d 2994 a4be 8dc9 45bd
00000060: aae3 893e 9ebf 263e e84e 4cbe 576c 5e3e
00000070: d702 e83d 1973 b5be 758d bfbe 5cb8 843e
00000080: d70c 843e 6cc8 ddbe 5dbb c5be 14dd ebbe
00000090: 14d3 da3e 8f11 b23c 435f 553e c444 25be
000000a0: c731 15bf f215 8c3e 443a acbe d7f9 6c3e
000000b0: 3245 a7be 1e09 b73e a16e 6f3e 91dc a3be
000000c0: 86ec fa3d 39ae 913e a741 c8be d611 873e
000000d0: 153c a33e 1b21 933d f578 623e d6d3 e1be
000000e0: 0ec0 8e3e 4576 c03e 9c6e c6be 2b43 013e
000000f0: bb4b c2be 31a7 c6be a173 c1be 86f3 31be
00000100: ffe9 50be 9eec d0be 4499 e3bd 68ce d6be
00000110: 22be babe c5f6 a73e 08b0 723e 0890 76bd
00000120: f6c6 a5be 6e3b a6be d5b0 a83e 9fb7 2cbe
00000130: 4c23 dfbe e87f 87be 1e0d babd e1b5 94be
00000140: a41a 263e 9cad 763e 9142 fbbe 49f9 2d3e
00000150: dd4c 713e 2b12 d23e c552 b8be 5d67 8bbe
00000160: cdbe 58be 79cf 47bd 42c9 903e 1b95 35be
00000170: b4fb 0e3e db9d 9a3e 2876 a73e 7de9 753e
00000180: 43e7 9dbe 7711 373e 0c0f b8be cd86 95be
00000190: b022 db3e fe30 fabe 2b89 d8be 71f0 e33e
000001a0: 4f22 fa3d b703 b83e a71a 173e 3b45 bbbe
000001b0: d029 99be 2354 43be b2e0 ff3d a398 dbbe
000001c0: b823 fe3d 0a37 cdbe 0329 303d c2dc 7c3e
000001d0: 45ce eebe 6fb2 733e 015c 1e3d a0a4 8dbe
000001e0: 39e9 04bf bc4b c33e 7ae4 9e3d aa09 78be
000001f0: 383a c33e 172f abbe 522a 92be 208f 843e
00000200: 3e06 a73e 438a ffbe 8db2 89be 5177 a93e
00000210: 7a93 c4be 88e6 093e 8915 a2be 86c1 6abe
00000220: 6eb1 983e 9a33 bb3e f950 61be 05e8 adbe
00000230: 8e68 05bf 86c5 e3be ae56 ab3e 95ce 8b3e
00000240: 8cde a0be b94e 523e 1b44 d6be 4e28 7c3e
00000250: c4f2 8abe 6da3 c9be b5f1 903e ab70 ca3e
00000260: 1cf4 51be 5bfc 073e 50e8 dd3e c90a 0bbf
00000270: c3bb 553e 5321 b4be 9d3f a2be 2726 d4be
00000280: e4ef e83e f190 c9be 2420 e3be 2e78 eabe
00000290: cece bebe 952e ad3e c513 b4be 8ae6 4fbe
000002a0: dc43 d4be 803b 1ebe 3d06 9abe bb62 803e
000002b0: 7edc 653e fc2f d4be 458a c13e cda5 7b3e
000002c0: f497 923e c2d5 c33e fc3f c43e cf24 5abd
000002d0: 20e3 763e 791c babe 267c 72be 0bfb 9cbe
000002e0: 7226 a8be 8f0a d1be 0fa7 203e fd9c 5b3e
000002f0: 7c1c aebe d1b8 553e fbab 873e c0e8 793e
00000300: 27db 32be 2462 01bf c6a8 d9be 5fbd d4be
00000310: a444 803e 6fe3 92be 03cc d83e 453f 01be
00000320: c087 b03e 806e 863e 5208 15be 62b6 bb3e
00000330: 3ceb 613e 86c4 e9be ec18 14be 1246 b23e
00000340: 320f c43e ae0b 4d3e 411c cabd e94e 7a3d
00000350: 5815 b93e e8dd debe 8350 1c3d d09f d4be
00000360: ddb6 623e 8bb5 4c3e 6332 0dbf 0704 d33e
00000370: f083 f5be f604 b6be c429 80be 5412 5c3e
00000380: 4fe5 91be 1d6b a2be 1404 6c3e e3af 783e
00000390: be82 d83d d1de 883e b774 3b3e 2f61 923e
000003a0: f982 e23d bd6c 803e cb1d ccbe ae55 9cbe
000003b0: b31a 223e c8b7 a1be 5609 94be 14de aabe
000003c0: aa2d 02bf 41dc 083e b9dd 983e bccd 1b3e
000003d0: 2157 3a3d 541a da3e d019 823e 30f6 5abe
000003e0: cae5 f9be 873a 9bbe 44d2 03bf 7d44 633e
000003f0: 01fd 623e b1c1 89be 8309 453e b825 e0be
0.33718807 0.08509179 0.3901946 0.13060537 0.069656506 -0.24221446 0.31031117 -0.18330024
-0.14672296 0.31523684 0.4044518 -0.4824531 -0.30660722 0.29366124 -0.20701249 -0.313517
0.4240451 -0.36540392 0.1758859 -0.42213455 -0.28688335 0.05097419 -0.32144287 -0.048287917
0.26931506 0.16284034 -0.19951975 0.21721016 0.11328667 -0.35439375 -0.3741261 0.25921905
0.25791046 -0.43316972 -0.3861951 -0.46067107 0.42739165 0.021736888 0.2083712 -0.16139513
-0.5827908 0.27360493 -0.33638203 0.23142181 -0.3266998 0.35749143 0.23382045 -0.32004216
0.122521445 0.28453234 -0.3911259 0.26380795 0.31881776 0.07184049 0.22116454 -0.4410693
0.278809 0.37590232 -0.38756263 0.12623279 -0.37948403 -0.38799432 -0.3778353 -0.17378053
-0.20401762 -0.40805525 -0.111132175 -0.4195435 -0.36473185 0.32805458 0.23699963 -0.060195953
-0.32378358 -0.32467216 0.32947412 -0.16866921 -0.43581617 -0.26464772 -0.09084533 -0.29045013
0.162211 0.24089664 -0.49074224 0.16989626 0.23564477 0.41029486 -0.36000648 -0.27227297
-0.21166535 -0.048781846 0.28278548 -0.1773266 0.13963205 0.3019856 0.32707334 0.2401485
-0.308405 0.17877756 -0.3594898 -0.29204407 0.42799902 -0.48865503 -0.4229215 0.4451938
0.12213575 0.35940334 0.14756261 -0.36576256 -0.29914713 -0.19075064 0.12494029 -0.4288989
0.124091566 -0.40081054 0.04300786 0.24693587 -0.46641746 0.23798536 0.03866196 -0.2766466
-0.5191837 0.38143718 0.07758422 -0.24222437 0.38130355 -0.33434364 -0.28547913 0.25890446
0.3262195 -0.49910173 -0.26894036 0.33098844 -0.38393766 0.13466847 -0.31657055 -0.22925386
0.29822868 0.36562806 -0.22003545 -0.3396608 -0.5211266 -0.44486636 0.3346457 0.27306047
-0.3141979 0.20537843 -0.41848835 0.2462475 -0.2713834 -0.39382496 0.28309408 0.39539084
-0.20503277 0.1327986 0.43341303 -0.5431333 0.20872407 -0.35181674 -0.31689158 -0.41435358
0.45495522 -0.39368394 -0.4436046 -0.45794815 -0.37267154 0.33824602 -0.35171333 -0.20302787
-0.41458023 -0.15452385 -0.30082884 0.25075325 0.22447392 -0.4144286 0.37800804 0.24574967
0.28631556 0.38249022 0.38330066 -0.05325776 0.24110079 -0.36349848 -0.23680171 -0.3066028
-0.3284183 -0.40828368 0.15688728 0.21446605 -0.34006107 0.20871283 0.26498398 0.24405193
-0.17466412 -0.50540376 -0.42511576 -0.4155073 0.2505237 -0.28689143 0.4234315 -0.12621792
0.3447857 0.2625618 -0.14553955 0.36662585 0.22062391 -0.45657748 -0.14462632 0.34819084
0.38292843 0.20023987 -0.0986867 0.06111041 0.36149096 -0.43528676 0.03816272 -0.41528177
0.2214007 0.19991128 -0.5515501 0.4121401 -0.47952223 -0.3555066 -0.25031865 0.21491367
-0.2849526 -0.31722346 0.2304843 0.24285845 0.10571812 0.26732495 0.18306242 0.2858977
0.11060137 0.2508296 -0.3986648 -0.30534118 0.15830497 -0.31585526 -0.28913373 -0.33372557
-0.5085093 0.1336527 0.2985666 0.152152 0.04549325 0.42598212 0.25410318 -0.21382976
-0.48808128 -0.3031809 -0.51492715 0.22194095 0.22166826 -0.26905587 0.1924191 -0.43778777
