model_weights.pth (torch, 145160 bytes, 8 tensors)

conv1.att_src f4 [1, 8, 8]
000000 36 c6 50 bb 44 4a 7f 3b f5 00 01 bc 1d 37 7b ba
       -0.0031856424 0.0038954178 -0.007873763 -0.00095831027
000010 d5 2f ea 3c 7c 2a 57 3c 78 d3 7e 3d cc 8c dd ba
       0.028587261 0.013132688 0.06221339 -0.0016902923
000020 ee 79 be bd 6d 13 68 3e eb 0f 86 3c 25 b5 b1 3b
       -0.093006 0.2266366 0.016365012 0.0054232054
000030 40 a8 d5 bd ba fc 56 bb d1 a6 4e be b1 cc b6 3d
       -0.10432482 -0.0032804445 -0.20180823 0.089257605
000040 c8 2c 05 3c 56 e3 08 be dc 7f 3e 3b 1e ea 32 3a
       0.008128352 -0.13367972 0.002906791 0.00068250473
000050 34 d8 d4 3d 18 94 7e 3a c2 fa 80 be c8 aa 32 3c
       0.103928 0.0009711399 -0.25191313 0.010904975
000060 2a fa 26 3b 44 7d 5b bb 34 5d b1 3b 63 07 81 be
       0.00254787 -0.0033491412 0.005412722 -0.25200948
000070 fe 53 7a be 96 e2 88 bb 2a 53 45 ba 65 c3 17 ba
       -0.24446103 -0.004177402 -0.0007527346 -0.0005789309
000080 99 50 68 bb e4 53 69 bc 2d 6f 87 bd 65 61 ad bd
       -0.003544843 -0.0142411925 -0.06613002 -0.08465842
000090 7e b6 d7 bb 78 18 6a bc 9e 9b 64 bc 63 02 a3 3c
       -0.006583034 -0.01428806 -0.013953118 0.019898599
0000a0 1d f6 b3 39 83 06 60 be bf e6 79 3e 6d 2d 3b be
       0.0003432491 -0.21877484 0.24404429 -0.18279047
0000b0 51 60 f4 3d 8c 6e 23 3e 85 38 e2 3b 38 fb 26 be
       0.119324334 0.15960139 0.0069037103 -0.1630677
0000c0 60 a6 46 b9 08 d1 4f be cc 05 0c be 85 5f 54 be
       -0.00018944731 -0.20294583 -0.13674086 -0.20739563
0000d0 84 6b ff 3d d1 83 14 be 6b d5 f2 39 9c 59 02 bb
       0.12471679 -0.14503409 0.00046316846 -0.0019889837
0000e0 57 03 1d bd 4a 1b 09 be 47 7c a2 3d 02 66 6f 3d
       -0.038333263 -0.13389316 0.0793386 0.05844689
0000f0 54 04 e3 3d 33 18 72 bc 47 77 84 3e 5c 55 56 3e
       0.1108481 -0.014776277 0.2587225 0.20931

conv1.att_dst f4 [1, 8, 8]
000000 de d1 58 bc dc b7 3a 3d 8b 10 6b be dd 26 81 3e
       -0.01323363 0.0455855 -0.2295553 0.25224963
000010 f3 90 a1 39 ff 29 8e ba 56 a1 5a 3e 2e 4a 1e 3b
       0.0003081631 -0.0010846256 0.21350607 0.0024153101
000020 27 15 0a 3a bb bb 73 bb f6 4a bd ba 52 16 fe 3a
       0.0005267434 -0.0037190754 -0.0014441896 0.0019385314
000030 d1 02 54 ba 41 4b 0a 3e 3b 5b 85 bb 7c f1 98 3d
       -0.0008087578 0.1350527 -0.0040697134 0.074679345
000040 bc 7e 05 be 06 8f 4d 3e 56 0c 74 b9 22 a8 4b b9
       -0.13036627 0.2007409 -0.00023274249 -0.00019422223
000050 84 79 6a 3c 6a e3 5e be ac 65 70 3b c2 2a 61 bb
       0.014311198 -0.21766439 0.0036681695 -0.003435776
000060 c4 65 62 ba 74 02 20 3d 59 60 30 bb 7b 7b f9 3a
       -0.000863638 0.03906484 -0.0026912896 0.0019033992
000070 a9 38 79 3a a8 2c 5b 3d ce 9b 8a bc 17 ac 21 bb
       0.0009507039 0.053509384 -0.016919997 -0.0024669224
000080 c2 58 c5 ba 33 19 9d ba 3e d5 5c 3b 4c c9 4e bc
       -0.0015056359 -0.0011985659 0.0033696438 -0.012621235
000090 5b 14 20 bc f1 9e 82 bc 33 36 b8 3b d6 35 45 bc
       -0.009770478 -0.01594493 0.0056216954 -0.012036761
0000a0 57 8c db 3c 28 a2 b0 3a 30 9e 64 3a 6c 74 0f 38
       0.026800318 0.0013476061 0.00087210815 3.4202283e-05
0000b0 b5 2d 0d 3e cf c6 b4 3c 79 18 cc ba 6e 89 0c 3a
       0.13786967 0.022067456 -0.0015571258 0.0005361055
0000c0 93 94 0a be 75 32 b0 ba d7 13 38 3e 44 e9 6f 3e
       -0.13533239 -0.0013442772 0.17976318 0.23428828
0000d0 a3 4c cb bc 33 04 5b 3b a4 35 53 be 6b 00 4c 3e
       -0.024816817 0.003341925 -0.20625931 0.19922034
0000e0 3b a2 06 be 47 b1 b3 3c b7 d0 ab 3c b8 e6 ec 3d
       -0.13147824 0.021935118 0.020973546 0.115674436
0000f0 46 76 42 be 67 10 83 be 4e f5 83 be 64 4d 1b be
       -0.1899043 -0.25598451 -0.2577309 -0.15166241

conv1.bias f4 [64]
000000 d4 03 be 3d fa 1c 1a 3e e6 19 8a 3d 2e 74 d8 3d
       0.09278074 0.15050116 0.06743221 0.105690345
000010 88 ca 09 3e 6f 65 1e 3e 01 ab 17 3e f7 a7 6e 3d
       0.13456166 0.15468381 0.14811327 0.058265653
000020 9a 56 96 3d 02 d6 19 3e 54 96 63 3d 52 cc d1 3d
       0.07340737 0.15023044 0.055563286 0.10244049
000030 26 24 b4 3d 48 e5 15 3e 0a 4f b1 3d ce 70 97 3d
       0.08795957 0.14638245 0.08657654 0.07394563
000040 f9 3d b7 3d e7 89 1a 3e 1e 20 0c 3e fc 91 2d 3e
       0.08947367 0.15091668 0.13684127 0.1695022
000050 8e 2b c1 3d 53 5b 10 3e 00 b6 e4 3d 17 f7 07 3e
       0.094321355 0.14097337 0.11167526 0.13277851
000060 43 b9 e6 3d c4 3f a0 3d c2 9d c4 3d 04 43 8a 3d
       0.112658046 0.07824662 0.096004024 0.067510635
000070 50 f3 e2 3d 05 70 18 3e 72 f6 e3 3d 50 8b d7 3d
       0.110815644 0.14886482 0.1113099 0.105246186
000080 20 45 7d 3d be 87 4b 3e 98 9d b6 3d ca 8e af 3d
       0.0618335 0.19876 0.08916777 0.08572157
000090 ed b2 ed 3d cf a3 d0 3d e2 91 0b 3e 6c f2 13 3e
       0.11606393 0.10187494 0.13629869 0.14447945
0000a0 4d e3 a6 3d a5 19 b8 3d 63 da 1d 3e 5a 24 35 3d
       0.08148823 0.08989266 0.15415339 0.04422412
0000b0 bb ed 96 3d ef 8f 10 3e 9e a9 06 3d 7c dc 15 3e
       0.07369562 0.14117406 0.032876603 0.1463489
0000c0 71 32 ed 3d e4 05 bb 3d e7 17 d9 3d 7f 0a 74 3d
       0.115818866 0.09131983 0.10600262 0.059580322
0000d0 bf 9f eb 3d 6b 11 fe 3d ac 7f 01 3e c1 28 cd 3d
       0.115050785 0.12405666 0.12646359 0.10017539
0000e0 56 ed b1 3d ce cb c9 3d 9f d8 ab 3d dc 3e 6e 3d
       0.08687846 0.09853326 0.083909266 0.058165416
0000f0 04 a0 95 3d 4d 29 31 3e 64 97 d9 3d df cc 0f 3e
       0.07305911 0.17300911 0.106245786 0.14042996

conv1.lin.weight f4 [64, 543]
000000 ee df 62 3d 21 c0 2e bc ac 28 a1 3d c1 47 4f bc
       0.055389337 -0.010665924 0.07869086 -0.012651385
000010 a3 67 c2 bc 82 32 39 bd 70 62 99 3d fb 8a 58 bd
       -0.023731058 -0.045214184 0.074894786 -0.052866917
000020 0a 09 8d 3a 25 53 25 bd e9 76 07 bc f6 af fa bb
       0.001076014 -0.040362496 -0.0082680965 -0.0076503707
000030 4f e1 41 bd 64 d9 ca bc a4 92 ac bc 4a 85 15 3e
       -0.04733401 -0.024761863 -0.021066017 0.14601627
000040 63 9e 29 bd 11 77 95 bc d4 97 32 bd 8d 24 04 bd
       -0.041410815 -0.018245252 -0.043601826 -0.03226142
000050 01 c0 d4 3d cd 46 ea 3d b4 4a cb bc d9 d5 be bd
       0.10388184 0.114392854 -0.024815895 -0.09318132
000060 56 06 7c bd 06 78 97 3d e8 33 cb ba 47 a9 28 39
       -0.06152948 0.073959395 -0.001550314 0.00016084789
000070 cd 7c c0 bc b9 89 17 3e 1d fc a4 bc 94 ab a1 bd
       -0.02349701 0.14798631 -0.020139748 -0.07894054
000080 e7 51 b9 3b 56 a4 58 bd ea 62 dc 3d ae 11 96 3d
       0.0056555155 -0.052891098 0.10761054 0.07327591
000090 ed 13 ba 3d 0b d8 a1 bc 64 55 4a bd 5a 63 03 bd
       0.09085832 -0.019756338 -0.04939784 -0.03207717
0000a0 3d 73 ac bd d0 c3 0d ba b3 b3 89 bd 22 da da 3b
       -0.084204175 -0.00054079015 -0.06723728 0.0066788355
0000b0 39 1f 1e bd 04 1e 4d bc 59 63 c6 bd b4 80 2d bd
       -0.038603995 -0.012519363 -0.09686918 -0.04235907
0000c0 07 a3 26 b9 f0 3b 29 bd f9 6c 9b bc 21 a5 c6 bc
       -0.00015891726 -0.041316926 -0.01897286 -0.024248661
0000d0 df cf 78 bd a9 5b 96 bd 40 a3 04 bb 66 23 3f bc
       -0.060745116 -0.073417015 -0.0020238906 -0.0116661545
0000e0 de b5 84 3c fa 92 30 bd d6 ff 4c bd 2e 4d 9b bc
       0.016200002 -0.043108918 -0.05004867 -0.0189577
0000f0 eb 0b 2c bd 3c ab 37 bd e1 9c bd 3d 8d fc 90 bd
       -0.042003553 -0.044841036 0.09258438 -0.0707942
000100 9a b8 78 bd 82 d9 a0 bc 60 86 67 bb cf df 98 bd
       -0.060722925 -0.019634966 -0.0035327896 -0.07464563
000110 28 b9 ff 3d 29 42 6d bd 43 31 4d bd 8f e2 b1 bc
       0.124864876 -0.057924423 -0.050095808 -0.021714477
000120 df 9b 47 bd 86 6c 75 bd 3f 50 3d bd 52 6d 17 ba
       -0.048732635 -0.05991795 -0.046219107 -0.0005776483
000130 1f 5a ad 3d 1a a5 36 bd 07 21 3a bc 1d 93 49 bc
       0.08464455 -0.044591047 -0.011360413 -0.012303141
000140 09 8b 05 3e be 88 42 bd 45 f7 b8 bd 31 da bc bc
       0.13041319 -0.04749369 -0.09031538 -0.02305326
000150 cd 24 6b bd b9 01 94 bd 0b 5e 0c 3a 6e da 88 3c
       -0.057408143 -0.07226891 0.00053545897 0.016705718
000160 39 62 a9 3d 8c a9 3d bd a0 80 36 bd 23 f1 5e bc
       0.082706876 -0.04630427 -0.04455626 -0.013607296
000170 c8 3b e9 bc 7d 1a 96 bc 28 6b a6 bd e0 b5 ab 3d
       -0.028470889 -0.018323177 -0.08125907 0.08384299
000180 4c 90 0e 3e 2b cc be bc 6d 45 01 3e 9e 6d 6c 3d
       0.13922232 -0.023290714 0.1262414 0.057721727
000190 61 9e 0b 3e 35 b9 06 3e 41 bc bd bd b6 c1 1a bb
       0.13634636 0.13156588 -0.09264422 -0.0023613996
0001a0 b6 f8 8f 3d 6f 1d a1 bd cd d4 c9 39 4d 72 6e bc
       0.0702986 -0.07866942 0.00038496256 -0.014553619
0001b0 5d 6a 31 bd 73 92 93 bd b8 d0 0d 3e af 2d 90 3d
       -0.043314327 -0.07205667 0.13849151 0.070399635
0001c0 b8 0a 74 3d d6 43 f5 3d d8 08 0e 3e 58 01 fa 3d
       0.059580535 0.11975829 0.13870561 0.122072875
0001d0 ae ed 38 3a 54 d9 98 3d a0 b1 da 3d 6d d5 34 bd
       0.000705446 0.07463327 0.106784105 -0.04414885
0001e0 2c 90 30 3e 08 56 4b 3d 4e 68 6a bd 26 1d 1f bd
       0.17242497 0.049642593 -0.05722838 -0.038846157
0001f0 9c 8d 17 be dc 4a 21 3e d5 25 3e bd 76 16 1c bd
       -0.14800113 0.15751213 -0.0464228 -0.038107358
000200 e6 0b 06 bd e5 89 08 bd 1d 89 11 3e 97 74 28 3e
       -0.03272619 -0.03333463 0.14212461 0.16450725
000210 5f 9b b7 3b ff 8f ea 3d 74 6d b7 bd 12 2f cf 3c
       0.0056032385 0.11453246 -0.089564234 0.025291
000220 98 8d 41 37 23 73 fe bd 58 ce 97 37 f2 fa 24 3e
       1.1536664e-05 -0.12424304 1.8096689e-05 0.16111353
000230 7e 06 cf bd f8 e2 95 bd 72 88 85 3d 4c a1 47 bc
       -0.1010866 -0.073186815 0.065201655 -0.012184452
000240 fc 0b 8a 3b 70 dc 30 3e ea e3 96 3d ff ab f0 3d
       0.0042128544 0.1727159 0.0736769 0.11751556
000250 e1 1f c5 3d 37 64 92 3d 41 65 04 3e c1 74 81 3d
       0.09625221 0.07148021 0.1292925 0.06321097
000260 3a a2 3b 3b 89 ae f0 bc 23 af b9 bc 00 20 dc 3c
       0.002863063 -0.0293801 -0.02266652 0.026870728
000270 cc f9 a8 bd cc 2b 05 3e 90 cb 97 ba 99 06 14 3d
       -0.0825077 0.13004988 -0.0011581052 0.036139105
000280 64 34 97 bd ea 41 06 3e cb ea 51 bd 29 85 9a 3d
       -0.073830396 0.13111082 -0.051249307 0.075449295
000290 d7 12 42 bd d1 de c0 3d 3c b7 d9 3d fe 78 f1 ba
       -0.04738125 0.09417499 0.10630652 -0.0018422899
0002a0 8c cf b1 bc 82 ef 18 bd 79 20 b9 bd 8f 3f e4 b9
       -0.021705411 -0.037337787 -0.09039397 -0.00043534904
0002b0 0c a1 0b bd b9 a4 a8 3d 9f 4d 85 3d 17 5c 13 3d
       -0.034089133 0.08234543 0.06508946 0.035976496
0002c0 8c 9a 51 3e ff 52 5f 3e d6 ef b2 3d 20 0b 32 bd
       0.20469111 0.21809004 0.08737151 -0.04346764
0002d0 fd 51 87 3d ff 12 ce bd f4 71 1a bd c4 b6 8e 3a
       0.06607435 -0.10062217 -0.03770633 0.0010888209
0002e0 b1 67 77 3d c1 b3 a8 3d c6 b5 aa 3c bb 90 ba 3d
       0.060401622 0.0823741 0.02083863 0.091096364
0002f0 88 2f d4 3d 89 5e 42 3d 0d 32 ef bc 6d 5b 76 3e
       0.10360628 0.047453437 -0.02919867 0.24058314
000300 97 55 ff bd 77 79 c1 3d 5f 07 01 39 96 79 0e bd
       -0.12467497 0.09446996 0.00012305145 -0.034783922
000310 af 2a 88 bc a6 b0 14 3e 0b ca e5 bc 33 54 c4 3d
       -0.016621916 0.14520511 -0.028050443 0.09586372
000320 bb 3a 92 3b 9e 01 bd bc 9a a4 ad bc c8 ee cb 3d
       0.0044625676 -0.02307206 -0.021196652 0.09957653
000330 32 41 08 bd 4e 02 a9 3d 31 40 b1 bc 47 35 54 b9
       -0.0332653 0.08252393 -0.021637054 -0.00020237743
000340 83 64 05 3e 15 28 02 3e 58 55 61 3d e3 7f 7f 3d
       0.13026623 0.12710603 0.05501303 0.06237782
000350 0f 21 b8 3c f7 82 97 3d 77 80 85 bc 22 3d bd 3d
       0.022476701 0.073980264 -0.016296608 0.09240176
000360 0f 75 f1 bc e1 11 10 bc 4c 0e 0b bd 80 2e a5 bd
       -0.029474763 -0.008793325 -0.03394918 -0.0806551
000370 88 08 c4 bd 50 21 70 bd 6d 3b ba 3d fa b8 c4 3d
       -0.0957194 -0.05862552 0.09093366 0.09605594
000380 b1 20 21 3e e9 58 d2 3d 11 6e 8d bc 79 40 34 b9
       0.15735127 0.102708645 -0.017264398 -0.00017190156
000390 cd f6 93 bc 4e b9 7e bd 4a 7a 20 bd 9d 8e fa 3d
       -0.01806202 -0.06218844 -0.039179124 0.122342326
0003a0 19 c8 2b bd a4 6a 9a 3d c3 10 11 bd c8 ed be 3d
       -0.041938875 0.07539871 -0.035416376 0.09322697
0003b0 cc 80 e6 bb 34 10 01 be 51 db af 3d 68 2e 2a bd
       -0.0070343968 -0.12603837 0.08586753 -0.041548163
0003c0 8c 92 eb bd 01 73 0d 3a 2f 70 b6 b9 39 74 5b bd
       -0.11502561 0.000539586 -0.00034797328 -0.053577635
0003d0 fe 1f 1d 39 56 c0 00 3a 8b a0 90 3d 3f 32 c2 bc
       0.00014984605 0.0004911473 0.07061871 -0.0237056
0003e0 c9 1a f9 3d 60 03 0b 39 f2 73 4e 3d e7 53 66 3b
       0.12163312 0.0001325733 0.050403543 0.0035145225
0003f0 58 59 97 bc 5f af 74 bc c5 86 43 bd c0 bb 85 bd
       -0.01847522 -0.01493439 -0.047735948 -0.06529951

conv2.att_src f4 [1, 1, 8]
000000 e6 c4 89 bd 13 1a ea be 16 4c 00 bf 34 7f cb be
       -0.067270085 -0.45723018 -0.501161 -0.39745486
000010 46 db 91 bd 45 4c ee 3e 7a 68 bf 3e 97 2d 4c bd
       -0.07121901 0.46542564 0.37384397 -0.049848165

conv2.att_dst f4 [1, 1, 8]
000000 92 45 fe be bf e6 c0 be 70 15 8a be 5e 32 3c bf
       -0.49662453 -0.37676045 -0.2696948 -0.73514354
000010 e1 e1 09 be 4f ec 95 be a6 34 3b be 5e a1 d9 be
       -0.13465072 -0.29281852 -0.18281803 -0.42505926

conv2.bias f4 [8]
000000 2c eb bb bc 6c e1 d5 3d 7f 21 a6 3c f4 3d 2f be
       -0.022939287 0.104433864 0.020279644 -0.17113477
000010 9a ff 9a bd 89 74 1f 3e a3 f4 8f bd 67 88 7d bd
       -0.075682834 0.15571798 -0.070290826 -0.06189766

conv2.lin.weight f4 [8, 64]
000000 43 a3 b8 be 52 d6 00 be 0d 02 c6 3e c3 7f 26 bd
       -0.3606206 -0.12581757 0.3867344 -0.040649187
000010 9b 8e c3 3e 35 f8 b5 3e 14 3c 67 be 0b 0c 9b be
       0.38194737 0.3554093 -0.22581512 -0.30282626
000020 ce 5b b8 be 95 10 03 bf 68 75 d8 3c 62 19 d4 be
       -0.3600754 -0.5119718 0.026423171 -0.41425616
000030 cb 82 66 3e f0 0b f5 3e af 4d 74 be f8 28 a0 be
       0.22510831 0.4786067 -0.23857759 -0.31281257
000040 8a fc c1 3e e1 9c a9 be 8f 22 a9 be 05 01 a9 be
       0.37887985 -0.33127502 -0.3303418 -0.3300859
000050 cf 33 f9 3d 07 10 6a 3e 04 ec 13 be e1 94 9d 3e
       0.12168085 0.22857676 -0.14445502 0.30777648
000060 13 2a 50 be 36 fd e8 be 7b 2c 8b be 8d 3a a7 3e
       -0.2032855 -0.45505685 -0.27182373 0.32661858
000070 f2 03 66 3e 8a a6 90 3e bc c3 c3 be ad 1f 86 be
       0.22462443 0.2825206 -0.3823527 -0.26196042
000080 ac d6 b1 be a7 40 dc 3e b3 4c a2 bd 2b 63 c0 3d
       -0.34734094 0.43018076 -0.079247855 0.09393915
000090 8d 3f 4e 3e 1e f3 59 be bf 1c 84 be eb e2 99 be
       0.2014143 -0.21284148 -0.25803182 -0.30055937
0000a0 30 10 60 be 68 9b 91 3e a1 d8 12 bf 2c bf 80 3e
       -0.21881175 0.28438878 -0.573618 0.25145853
0000b0 6c d8 f0 3d 41 1b 9d be 99 2e d1 be 2c d6 05 bf
       0.11760029 -0.30684856 -0.40855864 -0.52279925
0000c0 5b de ae 3e db 06 ac be 49 50 cd be 55 0c e4 3d
       0.3415402 -0.3359898 -0.40100315 0.11135165
0000d0 6f 9a 76 3e 10 21 b0 3e 04 04 8e be 95 0e c5 3e
       0.24082349 0.34400225 -0.2773744 0.38487688
0000e0 57 67 ca 3e 17 0c a1 3e 9a 95 c4 be b3 7b 21 3d
       0.39531967 0.31454536 -0.38395387 0.03942461
0000f0 b6 ed ef be 84 c9 c3 be 61 03 cc 3e ab 4f 85 3e
       -0.46861047 -0.38239682 0.39846328 0.26037344
000100 29 b4 d9 be 71 29 cd 3e 6b 13 28 be 57 62 cb be
       -0.42520264 0.4007068 -0.16413657 -0.39723465
000110 be 20 ef bd 5e 60 ce 3d 9d 58 b9 3e 76 72 9d be
       -0.11676167 0.10076974 0.3620042 -0.3075139
000120 23 c7 cd be 43 d9 dc 3e 6e 9a be be e3 e0 b4 3d
       -0.40190992 0.43134508 -0.37227196 0.08831956
000130 e8 3c 52 be 42 ea 23 3e 7f c8 51 be e0 6a 84 be
       -0.20531046 0.16007331 -0.2048664 -0.2586279
000140 8e 15 8f be a2 56 9f 3e f3 d7 fb 3e 47 60 ea 3e
       -0.27946132 0.31120783 0.49188194 0.4577658
000150 29 65 c2 be ff fb b3 3e 80 10 6b be 89 33 ae 3e
       -0.37967804 0.35153195 -0.22955513 0.34023693
000160 6d 6d de 3e f5 5e 80 be 9f 70 43 be e8 f0 b1 be
       0.4344286 -0.25072446 -0.1908593 -0.3475411
000170 bd 20 c9 be 52 f4 ca 3e 06 a0 9f 3e 57 be 8d be
       -0.3928279 0.39639527 0.31176776 -0.2768428
000180 f2 72 d6 3d a3 34 d5 3e 4d 8b b6 be ab 49 99 be
       0.10471143 0.4164172 -0.35653153 -0.29939017
000190 08 90 7a be 52 2b 23 be ff 4f 89 be e1 f0 7b 3e
       -0.24469006 -0.15934494 -0.26818845 0.24603607
0001a0 cc c7 91 be 7f d0 c5 be a4 fe 55 3e 15 c7 82 be
       -0.28472745 -0.38635632 0.20897919 -0.25542513
0001b0 d1 2a b5 be a5 ea 5a 3e bb fe 9c be 7c 2b a3 3e
       -0.3538423 0.21378572 -0.30663094 0.31869113
0001c0 94 30 6d be 8f b8 42 3e 1b 59 8c be e0 3b 9b be
       -0.23163062 0.19015716 -0.27411732 -0.30319118
0001d0 4f 8d c0 be 71 9a d3 3e 9e a6 d1 be 3a 21 02 be
       -0.3760781 0.41328767 -0.4094743 -0.12707987
0001e0 89 24 6e be 4d b5 ba be 40 f5 dc be c5 3e 09 be
       -0.23256125 -0.36466447 -0.4315586 -0.13402851
0001f0 f7 ff 85 3e f2 74 8f be 68 66 4c be 77 7b b8 3e
       0.26171848 -0.2801891 -0.1996094 0.36031696
000200 bd e4 cc be 29 a7 3c be 62 8e be 3e 7d f9 e2 be
       -0.40018263 -0.18423142 0.37218004 -0.4433097
000210 0e 31 b5 3e d1 7a 6c be 10 db e1 be 46 e9 c1 be
       0.35388988 -0.23093726 -0.44112444 -0.37873286
000220 65 97 54 3e 4f 10 9d be 78 4e d9 3e 97 c8 87 be
       0.20760877 -0.30676505 0.4244268 -0.26520225
000230 cc 4a 24 3e 77 bc ae be 08 08 9c be 62 cf 2c 3e
       0.16044158 -0.34128162 -0.30474877 0.16875985
000240 70 e5 2a 3e c0 8d b9 3e 10 0c a7 be 52 6a a2 be
       0.16689086 0.3624096 -0.3262639 -0.3172174
000250 76 47 cf be 82 46 89 be 4f 4d 03 3f ae e0 bd be
       -0.40484208 -0.26811606 0.5128984 -0.3708548
000260 40 81 d5 be bc 8f 6d 3e 04 58 86 3e ee 5b af be
       -0.41700172 0.23199362 0.26239026 -0.34249824
000270 be 20 76 3e 84 1d 78 3e d9 19 8c be 3f 3f c0 3e
       0.24035928 0.2423001 -0.2736347 0.37548253
000280 6b 92 90 3e a8 9d bf 3e 20 0a 9c be 05 4f c3 be
       0.28236708 0.3742497 -0.30476475 -0.38146225
000290 5e 5b d8 be a8 0e cf 3e 1e 6d 89 be 5b a3 1c be
       -0.42257208 0.4044087 -0.26841062 -0.1529669
0002a0 53 7d c9 3e c2 0c cf be 8c b3 d9 be 05 9f bc 3e
       0.39353427 -0.4043942 -0.42519796 0.36840072
0002b0 34 d2 f9 be 88 ef 93 3e 86 bd c8 3e 91 48 ad 3d
       -0.48793185 0.28893685 0.39207095 0.084611066
0002c0 d0 bd a2 3e 88 68 01 3d 94 5a c9 3e ca 82 bf 3d
       0.3178544 0.03159383 0.39326918 0.09351118
0002d0 7f 52 6c 3e 58 67 48 be 56 9b 6b be c4 b3 50 be
       0.23078345 -0.19570673 -0.23008475 -0.20381075
0002e0 5f 14 7e 3e 4b 0a de be 52 00 26 3e 61 7a a5 3e
       0.24812458 -0.43367228 0.1621106 0.3231993
0002f0 35 a7 53 3e 26 7e 92 3e 0d ff 9d be c5 40 49 3e
       0.20669253 0.2861187 -0.3085865 0.19653614
000300 89 be 62 3e cf be bb 3d 8f 1d 9b 3e f2 89 cd be
       0.22142996 0.09167253 0.3029599 -0.40144306
000310 b2 da 91 be 19 e8 3b 3e 52 70 97 3e cd 0b 71 be
       -0.28487164 0.18350257 0.2957788 -0.23539658
000320 4a 60 b2 3e b9 fb a7 3e c4 1f 8a be bd 2b e9 3e
       0.34839088 0.32809237 -0.2697736 0.45541182
000330 20 7f c5 be 3d 19 9f 3e 3b 43 84 3e 55 8f dd bd
       -0.3857355 0.31073943 0.25832543 -0.10818354
000340 89 4a 13 be ba 29 4d be d6 70 d0 be c0 2a 8e bc
       -0.14383902 -0.20035449 -0.40711087 -0.01735437
000350 d4 c8 86 3e 08 e2 5d 3e 47 0b b4 be a8 41 98 be
       0.26325095 0.21668255 -0.35164854 -0.29737592
000360 ef 3a db bd 15 4d 5a 3e 14 1d af be 36 43 c1 3e
       -0.107046 0.21318467 -0.34201872 0.3774659
000370 b7 0c a4 be 7d 47 85 3e 47 2f a4 be 1c cf 4d 3d
       -0.3204095 0.26031104 -0.3206732 0.050246343
000380 2e 50 a1 3e 95 9a e5 bd dd 0e 84 3e 6a a2 ce be
       0.31506485 -0.11211125 0.2579259 -0.40358287
000390 eb 7c d8 be 0d eb 50 be 2a 2f 9e 3e e2 bb ec be
       -0.42282805 -0.20402165 0.30895358 -0.46237093
0003a0 80 10 65 be 86 45 22 be 99 5d 8d be d4 ff 5f bd
       -0.22369576 -0.15846834 -0.27610472 -0.054687336
0003b0 26 c4 47 3d bc 5a a8 3e 49 bd b5 3e 2a ea c5 3d
       0.048771046 0.32881725 0.35495976 0.09663804
0003c0 ac b0 e6 3e 14 44 98 3e 44 70 ad be 93 66 b5 be
       0.45056665 0.2973944 -0.33874714 -0.3542982
0003d0 f1 32 75 3e 96 ed b7 3e 7a c4 d9 3e c4 42 4e be
       0.23945214 0.3592345 0.42532712 -0.20142657
0003e0 d6 1d c6 be b7 33 95 3e e4 01 91 be bf f3 d4 3e
       -0.38694638 0.29141018 -0.28321755 0.41592214
0003f0 a5 27 66 3e 7a 6b ac be a0 41 9a be 8d 26 68 3e
       0.2247606 -0.33675748 -0.30128193 0.22670956
